{"modelTopology":{"class_name":"Sequential","config":{"name":"sequential_91137","layers":[{"class_name":"Dense","config":{"units":8,"activation":"relu","use_bias":true,"kernel_initializer":{"class_name":"VarianceScaling","config":{"scale":1,"mode":"fan_avg","distribution":"normal","seed":null}},"bias_initializer":{"class_name":"Zeros","config":{}},"kernel_regularizer":null,"bias_regularizer":null,"activity_regularizer":null,"kernel_constraint":null,"bias_constraint":null,"name":"dense_Dense182273","trainable":true,"batch_input_shape":[null,16],"dtype":"float32"}},{"class_name":"Dense","config":{"units":400,"activation":"sigmoid","use_bias":true,"kernel_initializer":{"class_name":"VarianceScaling","config":{"scale":1,"mode":"fan_avg","distribution":"normal","seed":null}},"bias_initializer":{"class_name":"Zeros","config":{}},"kernel_regularizer":null,"bias_regularizer":null,"activity_regularizer":null,"kernel_constraint":null,"bias_constraint":null,"name":"dense_Dense182274","trainable":true}}]},"keras_version":"tfjs-layers 1.7.4","backend":"tensor_flow.js"},"weightsManifest":[{"paths":["./model.weights.bin"],"weights":[{"name":"dense_Dense182273/kernel","shape":[16,8],"dtype":"float32"},{"name":"dense_Dense182273/bias","shape":[8],"dtype":"float32"},{"name":"dense_Dense182274/kernel","shape":[8,400],"dtype":"float32"},{"name":"dense_Dense182274/bias","shape":[400],"dtype":"float32"}]}]}