{"modelTopology":{"class_name":"Sequential","config":{"name":"sequential_2206","layers":[{"class_name":"Dense","config":{"units":16,"activation":"relu","use_bias":true,"kernel_initializer":{"class_name":"VarianceScaling","config":{"scale":1,"mode":"fan_avg","distribution":"normal","seed":null}},"bias_initializer":{"class_name":"Zeros","config":{}},"kernel_regularizer":null,"bias_regularizer":null,"activity_regularizer":null,"kernel_constraint":null,"bias_constraint":null,"name":"dense_Dense4411","trainable":true,"batch_input_shape":[null,6],"dtype":"float32"}},{"class_name":"Dense","config":{"units":4,"activation":"softmax","use_bias":true,"kernel_initializer":{"class_name":"VarianceScaling","config":{"scale":1,"mode":"fan_avg","distribution":"normal","seed":null}},"bias_initializer":{"class_name":"Zeros","config":{}},"kernel_regularizer":null,"bias_regularizer":null,"activity_regularizer":null,"kernel_constraint":null,"bias_constraint":null,"name":"dense_Dense4412","trainable":true}}]},"keras_version":"tfjs-layers 1.7.4","backend":"tensor_flow.js"},"weightsManifest":[{"paths":["./model.weights.bin"],"weights":[{"name":"dense_Dense4411/kernel","shape":[6,16],"dtype":"float32"},{"name":"dense_Dense4411/bias","shape":[16],"dtype":"float32"},{"name":"dense_Dense4412/kernel","shape":[16,4],"dtype":"float32"},{"name":"dense_Dense4412/bias","shape":[4],"dtype":"float32"}]}]}