{"modelTopology":{"class_name":"Sequential","config":{"name":"sequential_1541","layers":[{"class_name":"Dense","config":{"units":128,"activation":"relu","use_bias":true,"kernel_initializer":{"class_name":"VarianceScaling","config":{"scale":1,"mode":"fan_avg","distribution":"normal","seed":null}},"bias_initializer":{"class_name":"Zeros","config":{}},"kernel_regularizer":null,"bias_regularizer":null,"activity_regularizer":null,"kernel_constraint":null,"bias_constraint":null,"name":"dense_Dense3081","trainable":true,"batch_input_shape":[null,6],"dtype":"float32"}},{"class_name":"Dense","config":{"units":4,"activation":"softmax","use_bias":true,"kernel_initializer":{"class_name":"VarianceScaling","config":{"scale":1,"mode":"fan_avg","distribution":"normal","seed":null}},"bias_initializer":{"class_name":"Zeros","config":{}},"kernel_regularizer":null,"bias_regularizer":null,"activity_regularizer":null,"kernel_constraint":null,"bias_constraint":null,"name":"dense_Dense3082","trainable":true}}]},"keras_version":"tfjs-layers 1.7.4","backend":"tensor_flow.js"},"weightsManifest":[{"paths":["./model.weights.bin"],"weights":[{"name":"dense_Dense3081/kernel","shape":[6,128],"dtype":"float32"},{"name":"dense_Dense3081/bias","shape":[128],"dtype":"float32"},{"name":"dense_Dense3082/kernel","shape":[128,4],"dtype":"float32"},{"name":"dense_Dense3082/bias","shape":[4],"dtype":"float32"}]}]}